app/src/main/assets/model.tflite (tflite, 739296 bytes, 54 tensors)

Conv1/kernel i1 [16, 3, 3, 3]
0	0x0f	15
1	0x1e	30
2	0x09	9
3	0xbf	-65
4	0x81	-127
5	0xda	-38
6	0x35	53
7	0x69	105
8	0x17	23
9	0x0f	15
10	0x22	34
11	0x0a	10
12	0xbe	-66
13	0x88	-120
14	0xde	-34
15	0x3c	60
16	0x69	105
17	0x17	23
18	0xff	-1
19	0x02	2
20	0x04	4
21	0xed	-19
22	0xea	-22
23	0xf6	-10
24	0x12	18
25	0x0a	10
26	0x06	6
27	0xf0	-16
28	0x03	3
29	0xd6	-42
30	0x1f	31
31	0x48	72
32	0x2d	45
33	0x6b	107
34	0x7f	127
35	0x56	86
36	0xfa	-6
37	0x0a	10
38	0xf7	-9
39	0xf9	-7
40	0xe6	-26
41	0x0f	15
42	0x24	36
43	0x03	3
44	0x0a	10
45	0x02	2
46	0x13	19
47	0xec	-20
48	0x04	4
49	0x11	17
50	0x04	4
51	0x0d	13
52	0x10	16
53	0x0d	13
54	0xcf	-49
55	0xab	-85
56	0xea	-22
57	0xbb	-69
58	0x81	-127
59	0xdf	-33
60	0xe7	-25
61	0xcb	-53
62	0xf2	-14
63	0x11	17
64	0x35	53
65	0x0e	14
66	0x11	17
67	0x3d	61
68	0x0e	14
69	0x0e	14
70	0x1e	30
71	0x08	8
72	0x22	34
73	0x38	56
74	0x10	16
75	0x32	50
76	0x54	84
77	0x18	24
78	0x1c	28
79	0x16	22
80	0x0a	10
81	0xfc	-4
82	0x99	-103
83	0xcc	-52
84	0xd5	-43
85	0x98	-104
86	0xbd	-67
87	0xe0	-32
88	0xa4	-92
89	0xc9	-55
90	0xe0	-32
91	0x9e	-98
92	0xbb	-69
93	0x9e	-98
94	0x81	-127
95	0x99	-103
96	0xc1	-63
97	0xa1	-95
98	0xae	-82
99	0xcd	-51
100	0x8a	-118
101	0xac	-84
102	0xa4	-92
103	0x87	-121
104	0x9e	-98
105	0xc8	-56
106	0xa4	-92
107	0xb4	-76
108	0x32	50
109	0x6f	111
110	0x1c	28
111	0xd1	-47
112	0xa5	-91
113	0xe9	-23
114	0x04	4
115	0x08	8
116	0xfe	-2
117	0x44	68
118	0x7f	127
119	0x1f	31
120	0xca	-54
121	0xa0	-96
122	0xe8	-24
123	0x05	5
124	0x0d	13
125	0x00	0
126	0x1b	27
127	0x17	23
128	0x0c	12
129	0xef	-17
130	0xee	-18
131	0xfb	-5
132	0xfd	-3
133	0xfd	-3
134	0xff	-1
135	0x13	19
136	0xb0	-80
137	0xa4	-92
138	0x52	82
139	0x12	18
140	0xea	-22
141	0x2f	47
142	0xfa	-6
143	0xd0	-48
144	0x08	8
145	0xbb	-69
146	0xa8	-88
147	0x7f	127
148	0x5e	94
149	0x1a	26
150	0x32	50
151	0x3b	59
152	0xef	-17
153	0x35	53
154	0x0a	10
155	0xce	-50
156	0x6d	109
157	0x55	85
158	0x06	6
159	0x45	69
160	0x4f	79
161	0xf7	-9
162	0x15	21
163	0xf9	-7
164	0xee	-18
165	0x51	81
166	0xe0	-32
167	0xcc	-52
168	0x48	72
169	0xed	-19
170	0xc8	-56
171	0x40	64
172	0xf4	-12
173	0xc9	-55
174	0x7f	127
175	0xd4	-44
176	0xa9	-87
177	0x3e	62
178	0xf1	-15
179	0xd3	-45
180	0x3d	61
181	0xf8	-8
182	0xc8	-56
183	0x40	64
184	0xf3	-13
185	0xce	-50
186	0xee	-18
187	0x0d	13
188	0x07	7
189	0x62	98
190	0xa1	-95
191	0xe7	-25
192	0x5b	91
193	0x97	-105
194	0xcf	-49
195	0x41	65
196	0x92	-110
197	0xea	-22
198	0x5b	91
199	0x86	-122
200	0xd7	-41
201	0x76	118
202	0x8e	-114
203	0xfd	-3
204	0x3e	62
205	0x81	-127
206	0xce	-50
207	0x5c	92
208	0x91	-111
209	0xe2	-30
210	0x5f	95
211	0x99	-103
212	0xeb	-21
213	0x60	96
214	0xbd	-67
215	0xfd	-3
216	0xf1	-15
217	0xec	-20
218	0xfd	-3
219	0xfb	-5
220	0xf3	-13
221	0xf4	-12
222	0x09	9
223	0xec	-20
224	0x05	5
225	0xc0	-64
226	0x99	-103
227	0xd4	-44
228	0xbe	-66
229	0x81	-127
230	0xd6	-42
231	0xfa	-6
232	0xe6	-26
233	0xf5	-11
234	0xd6	-42
235	0xd2	-46
236	0xf8	-8
237	0xe1	-31
238	0xe8	-24
239	0xfb	-5
240	0x0a	10
241	0x07	7
242	0x04	4
243	0xc0	-64
244	0x6f	111
245	0x12	18
246	0xe4	-28
247	0x67	103
248	0xc9	-55
249	0x4b	75
250	0xd7	-41
251	0xe3	-29
252	0xe9	-23
253	0x1c	28
254	0x08	8
255	0x04	4

Conv_1/kernel i1 [1280, 1, 1, 112]
0	0x31	49
1	0xdb	-37
2	0xf1	-15
3	0x9c	-100
4	0xd8	-40
5	0x26	38
6	0xde	-34
7	0x07	7
8	0x45	69
9	0x03	3
10	0xee	-18
11	0xce	-50
12	0x21	33
13	0xd8	-40
14	0xf7	-9
15	0x8c	-116
16	0x97	-105
17	0x2d	45
18	0x46	70
19	0xed	-19
20	0x06	6
21	0xbd	-67
22	0xcd	-51
23	0x57	87
24	0x01	1
25	0x9a	-102
26	0xd0	-48
27	0x51	81
28	0xaf	-81
29	0xd4	-44
30	0x06	6
31	0x27	39
32	0xf3	-13
33	0x25	37
34	0x1c	28
35	0xf1	-15
36	0x2c	44
37	0x14	20
38	0x39	57
39	0x51	81
40	0x41	65
41	0xcd	-51
42	0x50	80
43	0xb6	-74
44	0x20	32
45	0xd5	-43
46	0x1a	26
47	0xd7	-41
48	0xeb	-21
49	0xd3	-45
50	0xec	-20
51	0x10	16
52	0x60	96
53	0xa7	-89
54	0xf3	-13
55	0x09	9
56	0x17	23
57	0x04	4
58	0x9e	-98
59	0x42	66
60	0xf9	-7
61	0xf0	-16
62	0x07	7
63	0xf7	-9
64	0x27	39
65	0xdf	-33
66	0xe4	-28
67	0xad	-83
68	0x13	19
69	0xde	-34
70	0x22	34
71	0x54	84
72	0xc3	-61
73	0xbb	-69
74	0x01	1
75	0xef	-17
76	0x72	114
77	0xc8	-56
78	0x0c	12
79	0x08	8
80	0x12	18
81	0x04	4
82	0xfe	-2
83	0xc9	-55
84	0x00	0
85	0xeb	-21
86	0xeb	-21
87	0xd1	-47
88	0xaf	-81
89	0x30	48
90	0x01	1
91	0x14	20
92	0xfd	-3
93	0xe7	-25
94	0x1d	29
95	0x0c	12
96	0x2e	46
97	0xcc	-52
98	0xbf	-65
99	0x81	-127
100	0x7b	123
101	0x0d	13
102	0x4d	77
103	0xf9	-7
104	0xd5	-43
105	0xf7	-9
106	0xea	-22
107	0x9b	-101
108	0x2d	45
109	0xa6	-90
110	0xa6	-90
111	0x17	23
112	0x0f	15
113	0xb3	-77
114	0x13	19
115	0xe9	-23
116	0xec	-20
117	0x29	41
118	0x4b	75
119	0x12	18
120	0x2a	42
121	0xc1	-63
122	0x1d	29
123	0xb6	-74
124	0xab	-85
125	0xd6	-42
126	0xd5	-43
127	0xb7	-73
128	0x9e	-98
129	0x36	54
130	0xd9	-39
131	0xe0	-32
132	0x2a	42
133	0x28	40
134	0xed	-19
135	0xc8	-56
136	0x33	51
137	0x14	20
138	0x07	7
139	0x0e	14
140	0xfa	-6
141	0x17	23
142	0xdf	-33
143	0x35	53
144	0xf0	-16
145	0xed	-19
146	0xeb	-21
147	0x0a	10
148	0x3d	61
149	0xf7	-9
150	0x09	9
151	0xd1	-47
152	0x0d	13
153	0xc1	-63
154	0x20	32
155	0x86	-122
156	0xfb	-5
157	0x38	56
158	0xf3	-13
159	0xcd	-51
160	0x11	17
161	0xf1	-15
162	0xfa	-6
163	0xc1	-63
164	0x34	52
165	0xee	-18
166	0xbd	-67
167	0xda	-38
168	0x13	19
169	0xf6	-10
170	0xde	-34
171	0xea	-22
172	0xfe	-2
173	0x26	38
174	0x25	37
175	0xe9	-23
176	0xc6	-58
177	0x36	54
178	0xe4	-28
179	0xf9	-7
180	0xcb	-53
181	0x2a	42
182	0x41	65
183	0xe9	-23
184	0x37	55
185	0xc9	-55
186	0x10	16
187	0xb4	-76
188	0xec	-20
189	0x33	51
190	0xc0	-64
191	0xe6	-26
192	0x03	3
193	0x03	3
194	0xe8	-24
195	0xf8	-8
196	0xd7	-41
197	0xd4	-44
198	0x16	22
199	0x0f	15
200	0x19	25
201	0xfc	-4
202	0x91	-111
203	0xfb	-5
204	0xe2	-30
205	0xeb	-21
206	0x23	35
207	0xbe	-66
208	0x1e	30
209	0xe9	-23
210	0xc3	-61
211	0xd9	-39
212	0xd9	-39
213	0xf3	-13
214	0x38	56
215	0x7f	127
216	0xec	-20
217	0xbc	-68
218	0x05	5
219	0xd2	-46
220	0x4b	75
221	0xfb	-5
222	0xea	-22
223	0xb8	-72
224	0x11	17
225	0xd3	-45
226	0xfc	-4
227	0xf5	-11
228	0x3e	62
229	0x08	8
230	0xe4	-28
231	0xf0	-16
232	0xe7	-25
233	0xde	-34
234	0x42	66
235	0xe6	-26
236	0xf6	-10
237	0xcc	-52
238	0xfc	-4
239	0x2b	43
240	0x03	3
241	0x14	20
242	0xf3	-13
243	0xf1	-15
244	0x1f	31
245	0x2c	44
246	0x05	5
247	0xff	-1
248	0xda	-38
249	0x1b	27
250	0x46	70
251	0xd1	-47
252	0xf3	-13
253	0xca	-54
254	0x1b	27
255	0xeb	-21

block_10_depthwise/depthwise_kernel i1 [1, 3, 3, 144]
0	0xf7	-9
1	0xfd	-3
2	0xec	-20
3	0xe1	-31
4	0x0a	10
5	0x25	37
6	0xfe	-2
7	0x14	20
8	0x2d	45
9	0xe2	-30
10	0xf7	-9
11	0xf8	-8
12	0x07	7
13	0x03	3
14	0x01	1
15	0xfb	-5
16	0xc4	-60
17	0xf9	-7
18	0xdc	-36
19	0x1d	29
20	0x0d	13
21	0xef	-17
22	0xfb	-5
23	0xeb	-21
24	0x07	7
25	0x0b	11
26	0xc1	-63
27	0x08	8
28	0xb9	-71
29	0xe6	-26
30	0x2a	42
31	0x16	22
32	0x10	16
33	0x1b	27
34	0x1e	30
35	0xac	-84
36	0x99	-103
37	0xef	-17
38	0xa7	-89
39	0x05	5
40	0xef	-17
41	0xf7	-9
42	0xf4	-12
43	0x0c	12
44	0xef	-17
45	0x12	18
46	0xfa	-6
47	0x01	1
48	0xfd	-3
49	0x81	-127
50	0xee	-18
51	0xf5	-11
52	0xf8	-8
53	0x23	35
54	0xeb	-21
55	0x02	2
56	0x00	0
57	0xeb	-21
58	0x03	3
59	0x00	0
60	0xed	-19
61	0xb2	-78
62	0x26	38
63	0x27	39
64	0x39	57
65	0xfd	-3
66	0x03	3
67	0xd9	-39
68	0x0b	11
69	0x07	7
70	0xd1	-47
71	0x0d	13
72	0xe8	-24
73	0xfc	-4
74	0x00	0
75	0xbb	-69
76	0x81	-127
77	0xce	-50
78	0x10	16
79	0x0c	12
80	0xea	-22
81	0xe6	-26
82	0x05	5
83	0x03	3
84	0x01	1
85	0x00	0
86	0x21	33
87	0xbd	-67
88	0x16	22
89	0xed	-19
90	0x27	39
91	0x03	3
92	0x22	34
93	0x0e	14
94	0x10	16
95	0x03	3
96	0xf5	-11
97	0xb6	-74
98	0xe0	-32
99	0xfb	-5
100	0xe0	-32
101	0x03	3
102	0x08	8
103	0xff	-1
104	0x0c	12
105	0x0d	13
106	0xf3	-13
107	0x5a	90
108	0x05	5
109	0x08	8
110	0xeb	-21
111	0xcb	-53
112	0x0c	12
113	0x14	20
114	0xec	-20
115	0xda	-38
116	0xf9	-7
117	0xda	-38
118	0x1f	31
119	0xfa	-6
120	0xdd	-35
121	0xf9	-7
122	0x36	54
123	0xfc	-4
124	0x1c	28
125	0xed	-19
126	0x02	2
127	0x22	34
128	0x3b	59
129	0x09	9
130	0x0b	11
131	0x22	34
132	0xeb	-21
133	0x16	22
134	0xe0	-32
135	0x17	23
136	0x11	17
137	0xea	-22
138	0xef	-17
139	0xf7	-9
140	0x03	3
141	0xfb	-5
142	0x81	-127
143	0xc1	-63
144	0x18	24
145	0x22	34
146	0x0c	12
147	0xc2	-62
148	0x14	20
149	0xdf	-33
150	0xbc	-68
151	0x3c	60
152	0x7f	127
153	0xe9	-23
154	0xd4	-44
155	0xf5	-11
156	0x1a	26
157	0x0d	13
158	0x1a	26
159	0x18	24
160	0x81	-127
161	0x19	25
162	0x0b	11
163	0x2c	44
164	0x08	8
165	0xdf	-33
166	0x06	6
167	0xf5	-11
168	0xc9	-55
169	0x07	7
170	0x0e	14
171	0xe0	-32
172	0x06	6
173	0x96	-106
174	0xcb	-53
175	0x23	35
176	0x0c	12
177	0x76	118
178	0x7f	127
179	0x8a	-118
180	0xb8	-72
181	0x0f	15
182	0x01	1
183	0x31	49
184	0xd5	-43
185	0xeb	-21
186	0x02	2
187	0xeb	-21
188	0xac	-84
189	0xf8	-8
190	0x14	20
191	0x0b	11
192	0xff	-1
193	0x85	-123
194	0x32	50
195	0x16	22
196	0x13	19
197	0xf9	-7
198	0xf7	-9
199	0x25	37
200	0xfe	-2
201	0xd6	-42
202	0x13	19
203	0x31	49
204	0xc3	-61
205	0xe6	-26
206	0x52	82
207	0x42	66
208	0x02	2
209	0xc8	-56
210	0x04	4
211	0xe1	-31
212	0x06	6
213	0x33	51
214	0xbf	-65
215	0x1e	30
216	0x13	19
217	0x51	81
218	0x1d	29
219	0x81	-127
220	0xd3	-45
221	0xcc	-52
222	0x42	66
223	0x24	36
224	0x28	40
225	0x01	1
226	0x3b	59
227	0xcc	-52
228	0xd0	-48
229	0xd2	-46
230	0x6e	110
231	0x1b	27
232	0x1b	27
233	0xdf	-33
234	0x19	25
235	0x3f	63
236	0x9f	-97
237	0x0b	11
238	0xe9	-23
239	0xfb	-5
240	0xfa	-6
241	0x9a	-102
242	0xbc	-68
243	0xe1	-31
244	0xce	-50
245	0x3b	59
246	0x16	22
247	0xff	-1
248	0x24	36
249	0x33	51
250	0xe9	-23
251	0x30	48
252	0xfd	-3
253	0x8c	-116
254	0xaa	-86
255	0xfc	-4

block_10_expand/kernel i1 [144, 1, 1, 24]
0	0x12	18
1	0x23	35
2	0xfb	-5
3	0x26	38
4	0x09	9
5	0x18	24
6	0x13	19
7	0x81	-127
8	0xc3	-61
9	0x2d	45
10	0x30	48
11	0xeb	-21
12	0x03	3
13	0x24	36
14	0xe4	-28
15	0x13	19
16	0x32	50
17	0xe0	-32
18	0xb0	-80
19	0x08	8
20	0x1c	28
21	0x46	70
22	0xd8	-40
23	0x37	55
24	0x35	53
25	0xe4	-28
26	0x7f	127
27	0x0b	11
28	0xfd	-3
29	0x10	16
30	0xf7	-9
31	0x0e	14
32	0xe2	-30
33	0x07	7
34	0x0e	14
35	0xfc	-4
36	0x2b	43
37	0x0c	12
38	0xf9	-7
39	0x17	23
40	0x12	18
41	0xe1	-31
42	0xc3	-61
43	0xe3	-29
44	0xe8	-24
45	0x16	22
46	0xf5	-11
47	0x0b	11
48	0x76	118
49	0x7f	127
50	0x1d	29
51	0x0b	11
52	0xae	-82
53	0x16	22
54	0x4b	75
55	0xdb	-37
56	0xf6	-10
57	0xb9	-71
58	0xc7	-57
59	0x08	8
60	0x82	-126
61	0x9c	-100
62	0xe6	-26
63	0xf8	-8
64	0x1f	31
65	0xe3	-29
66	0xf3	-13
67	0xd5	-43
68	0xce	-50
69	0x97	-105
70	0x1c	28
71	0x27	39
72	0x31	49
73	0xfc	-4
74	0xe6	-26
75	0x06	6
76	0x20	32
77	0x81	-127
78	0x1d	29
79	0x36	54
80	0x30	48
81	0x30	48
82	0x53	83
83	0x2b	43
84	0x69	105
85	0xa1	-95
86	0x1f	31
87	0x2d	45
88	0x3a	58
89	0x1d	29
90	0xf3	-13
91	0xfd	-3
92	0xe3	-29
93	0x4e	78
94	0xe4	-28
95	0x4b	75
96	0x14	20
97	0x1e	30
98	0x05	5
99	0x98	-104
100	0xd9	-39
101	0xf5	-11
102	0xf7	-9
103	0x0a	10
104	0x1b	27
105	0x2e	46
106	0x7f	127
107	0x06	6
108	0x08	8
109	0x10	16
110	0x38	56
111	0xff	-1
112	0xd9	-39
113	0x55	85
114	0xcd	-51
115	0x99	-103
116	0xba	-70
117	0xfd	-3
118	0xfb	-5
119	0xdb	-37
120	0x2c	44
121	0xe9	-23
122	0xfb	-5
123	0xd2	-46
124	0xa4	-92
125	0x21	33
126	0x70	112
127	0xf9	-7
128	0x20	32
129	0x28	40
130	0x37	55
131	0xea	-22
132	0x81	-127
133	0xf2	-14
134	0xb8	-72
135	0xb1	-79
136	0xa4	-92
137	0x83	-125
138	0x12	18
139	0x42	66
140	0xdf	-33
141	0xfd	-3
142	0xee	-18
143	0xd4	-44
144	0x81	-127
145	0x18	24
146	0x74	116
147	0xed	-19
148	0x2b	43
149	0xf3	-13
150	0xf7	-9
151	0xfd	-3
152	0x5a	90
153	0xff	-1
154	0xea	-22
155	0xf5	-11
156	0x0e	14
157	0xf0	-16
158	0x25	37
159	0xf0	-16
160	0xf1	-15
161	0x19	25
162	0xd0	-48
163	0x2d	45
164	0x17	23
165	0xff	-1
166	0xfc	-4
167	0x06	6
168	0x0a	10
169	0xf7	-9
170	0xf5	-11
171	0x07	7
172	0xff	-1
173	0x0a	10
174	0xdc	-36
175	0x0b	11
176	0x05	5
177	0xed	-19
178	0x19	25
179	0x37	55
180	0x04	4
181	0x09	9
182	0xd0	-48
183	0x81	-127
184	0x49	73
185	0x3f	63
186	0xf9	-7
187	0x10	16
188	0xe7	-25
189	0xef	-17
190	0xd5	-43
191	0x0f	15
192	0x3b	59
193	0xd1	-47
194	0x12	18
195	0x31	49
196	0x45	69
197	0xec	-20
198	0xf9	-7
199	0x09	9
200	0xa2	-94
201	0xf0	-16
202	0x18	24
203	0x0a	10
204	0xd5	-43
205	0x00	0
206	0x42	66
207	0xf7	-9
208	0x2b	43
209	0x3d	61
210	0x81	-127
211	0xae	-82
212	0xdf	-33
213	0x33	51
214	0x52	82
215	0x51	81
216	0x0f	15
217	0xdc	-36
218	0x00	0
219	0xdc	-36
220	0xd9	-39
221	0xe7	-25
222	0x16	22
223	0xf3	-13
224	0x14	20
225	0x0f	15
226	0xfa	-6
227	0xda	-38
228	0x0f	15
229	0x00	0
230	0xf3	-13
231	0xe6	-26
232	0x12	18
233	0xf9	-7
234	0xf9	-7
235	0x35	53
236	0xf2	-14
237	0x1b	27
238	0x7f	127
239	0x0a	10
240	0xff	-1
241	0x01	1
242	0xf8	-8
243	0x12	18
244	0x9a	-102
245	0xfc	-4
246	0xd3	-45
247	0xfc	-4
248	0xf7	-9
249	0x0d	13
250	0x06	6
251	0xf3	-13
252	0x11	17
253	0x0c	12
254	0x1a	26
255	0xec	-20

block_10_project/kernel i1 [32, 1, 1, 144]
0	0xfb	-5
1	0x16	22
2	0x30	48
3	0x0e	14
4	0xe4	-28
5	0xed	-19
6	0xd8	-40
7	0x17	23
8	0xa8	-88
9	0x12	18
10	0x36	54
11	0x33	51
12	0xec	-20
13	0x08	8
14	0x06	6
15	0x15	21
16	0xfa	-6
17	0xe7	-25
18	0xcd	-51
19	0xfe	-2
20	0xc4	-60
21	0xf7	-9
22	0xff	-1
23	0xda	-38
24	0x05	5
25	0xc6	-58
26	0x0e	14
27	0xf0	-16
28	0x16	22
29	0x0e	14
30	0x0c	12
31	0x28	40
32	0xf8	-8
33	0xee	-18
34	0x08	8
35	0x0b	11
36	0x10	16
37	0xca	-54
38	0xef	-17
39	0x07	7
40	0x4e	78
41	0xf2	-14
42	0x06	6
43	0xff	-1
44	0x24	36
45	0x01	1
46	0x12	18
47	0xfe	-2
48	0x1c	28
49	0x1f	31
50	0x04	4
51	0x07	7
52	0x37	55
53	0xdd	-35
54	0xff	-1
55	0x33	51
56	0xd6	-42
57	0xf6	-10
58	0x44	68
59	0xfe	-2
60	0x16	22
61	0xdc	-36
62	0xfb	-5
63	0x4d	77
64	0x2d	45
65	0xf9	-7
66	0x2e	46
67	0xef	-17
68	0x4d	77
69	0x2e	46
70	0xfe	-2
71	0x4d	77
72	0xff	-1
73	0x5e	94
74	0x0c	12
75	0xfa	-6
76	0xd8	-40
77	0xe9	-23
78	0x0c	12
79	0x07	7
80	0xe6	-26
81	0xbc	-68
82	0x2a	42
83	0xfd	-3
84	0xda	-38
85	0xc9	-55
86	0xf4	-12
87	0x27	39
88	0xf5	-11
89	0x0f	15
90	0x10	16
91	0xf6	-10
92	0x03	3
93	0x0c	12
94	0x28	40
95	0xf9	-7
96	0xf6	-10
97	0x06	6
98	0x35	53
99	0x0c	12
100	0x20	32
101	0xef	-17
102	0x22	34
103	0xf0	-16
104	0x17	23
105	0xde	-34
106	0x32	50
107	0xe5	-27
108	0xe9	-23
109	0xda	-38
110	0xf6	-10
111	0xf5	-11
112	0x1b	27
113	0xc9	-55
114	0x09	9
115	0x04	4
116	0x10	16
117	0x0b	11
118	0x81	-127
119	0x39	57
120	0x20	32
121	0xf1	-15
122	0xfa	-6
123	0x01	1
124	0xe1	-31
125	0x15	21
126	0x25	37
127	0xe4	-28
128	0x05	5
129	0x02	2
130	0x07	7
131	0xed	-19
132	0x11	17
133	0xef	-17
134	0x0e	14
135	0x44	68
136	0xf4	-12
137	0x0b	11
138	0xee	-18
139	0xd5	-43
140	0x13	19
141	0x35	53
142	0xc0	-64
143	0x0e	14
144	0x32	50
145	0xd9	-39
146	0xbb	-69
147	0x0b	11
148	0x84	-124
149	0x01	1
150	0xa1	-95
151	0x34	52
152	0x00	0
153	0xeb	-21
154	0x9e	-98
155	0x33	51
156	0x36	54
157	0x59	89
158	0x03	3
159	0x2a	42
160	0xba	-70
161	0x17	23
162	0xf6	-10
163	0x0e	14
164	0xe4	-28
165	0x71	113
166	0x34	52
167	0x11	17
168	0xe5	-27
169	0x79	121
170	0x0a	10
171	0x09	9
172	0xe2	-30
173	0xe3	-29
174	0x38	56
175	0xa4	-92
176	0x06	6
177	0x2e	46
178	0xe6	-26
179	0xdc	-36
180	0xf8	-8
181	0xfd	-3
182	0xcc	-52
183	0xfd	-3
184	0x01	1
185	0xf1	-15
186	0x34	52
187	0x3f	63
188	0x19	25
189	0xf2	-14
190	0xa3	-93
191	0x26	38
192	0xd4	-44
193	0x16	22
194	0xca	-54
195	0x18	24
196	0x2b	43
197	0x23	35
198	0xda	-38
199	0xb9	-71
200	0xf4	-12
201	0x50	80
202	0x3b	59
203	0x12	18
204	0xa1	-95
205	0x02	2
206	0x03	3
207	0xd6	-42
208	0x08	8
209	0x16	22
210	0xdb	-37
211	0xf8	-8
212	0xfe	-2
213	0xdc	-36
214	0x14	20
215	0x48	72
216	0x2e	46
217	0xeb	-21
218	0xd8	-40
219	0x13	19
220	0xfb	-5
221	0x2f	47
222	0xfc	-4
223	0xf0	-16
224	0xfd	-3
225	0x33	51
226	0xd2	-46
227	0x34	52
228	0xde	-34
229	0xb8	-72
230	0x1a	26
231	0x11	17
232	0xd0	-48
233	0x3f	63
234	0xcd	-51
235	0xf5	-11
236	0x02	2
237	0x0d	13
238	0x88	-120
239	0x35	53
240	0xe3	-29
241	0xd4	-44
242	0x0f	15
243	0x37	55
244	0xfa	-6
245	0xde	-34
246	0x22	34
247	0x12	18
248	0x44	68
249	0x93	-109
250	0x2c	44
251	0xf1	-15
252	0xf1	-15
253	0xe0	-32
254	0xee	-18
255	0x0c	12

block_11_depthwise/depthwise_kernel i1 [1, 3, 3, 192]
0	0x16	22
1	0x0b	11
2	0xfb	-5
3	0x15	21
4	0xa7	-89
5	0x08	8
6	0x22	34
7	0x25	37
8	0x98	-104
9	0x41	65
10	0x30	48
11	0x7f	127
12	0x43	67
13	0xb1	-79
14	0xe8	-24
15	0x20	32
16	0xfa	-6
17	0x97	-105
18	0x7f	127
19	0x81	-127
20	0xd7	-41
21	0x04	4
22	0xfa	-6
23	0xe7	-25
24	0xb3	-77
25	0x42	66
26	0x12	18
27	0x0c	12
28	0xdc	-36
29	0xdd	-35
30	0xc3	-61
31	0x1d	29
32	0xc7	-57
33	0x1a	26
34	0x28	40
35	0x26	38
36	0x05	5
37	0x11	17
38	0xce	-50
39	0xf8	-8
40	0x7f	127
41	0xce	-50
42	0xff	-1
43	0x27	39
44	0xff	-1
45	0xef	-17
46	0x18	24
47	0xf9	-7
48	0x38	56
49	0xee	-18
50	0x00	0
51	0x02	2
52	0xae	-82
53	0x1a	26
54	0x56	86
55	0x2e	46
56	0x3b	59
57	0xe6	-26
58	0x00	0
59	0x42	66
60	0x4d	77
61	0x5e	94
62	0x64	100
63	0x12	18
64	0x08	8
65	0xbd	-67
66	0xe1	-31
67	0x1e	30
68	0x0e	14
69	0x25	37
70	0xc5	-59
71	0xfd	-3
72	0x32	50
73	0x02	2
74	0x1f	31
75	0x1f	31
76	0x19	25
77	0xe3	-29
78	0xb0	-80
79	0x7f	127
80	0x2e	46
81	0xdb	-37
82	0x9b	-101
83	0x90	-112
84	0x81	-127
85	0x07	7
86	0xc6	-58
87	0x46	70
88	0xca	-54
89	0x06	6
90	0xee	-18
91	0x09	9
92	0xfb	-5
93	0xb1	-79
94	0xb2	-78
95	0x21	33
96	0x50	80
97	0xb0	-80
98	0x1a	26
99	0x01	1
100	0xfd	-3
101	0x07	7
102	0x5f	95
103	0xb7	-73
104	0x5f	95
105	0x32	50
106	0xf3	-13
107	0xfc	-4
108	0x50	80
109	0x71	113
110	0x09	9
111	0xad	-83
112	0xf7	-9
113	0x39	57
114	0x01	1
115	0x05	5
116	0x0d	13
117	0x32	50
118	0x92	-110
119	0x18	24
120	0xd4	-44
121	0x23	35
122	0x0d	13
123	0xd9	-39
124	0x00	0
125	0xfb	-5
126	0x17	23
127	0xc6	-58
128	0x04	4
129	0xed	-19
130	0x09	9
131	0xd6	-42
132	0x29	41
133	0x50	80
134	0x47	71
135	0xc0	-64
136	0x38	56
137	0xe3	-29
138	0x7f	127
139	0xff	-1
140	0xdb	-37
141	0x1a	26
142	0xd4	-44
143	0x2e	46
144	0x39	57
145	0xe7	-25
146	0xf0	-16
147	0x33	51
148	0x0c	12
149	0x4c	76
150	0xf6	-10
151	0xee	-18
152	0x90	-112
153	0xb8	-72
154	0xe7	-25
155	0x81	-127
156	0xe0	-32
157	0xdf	-33
158	0xbb	-69
159	0xe9	-23
160	0xb5	-75
161	0xef	-17
162	0xb5	-75
163	0x2e	46
164	0xfc	-4
165	0x16	22
166	0x08	8
167	0xed	-19
168	0x39	57
169	0x48	72
170	0xfe	-2
171	0xe7	-25
172	0x59	89
173	0xd7	-41
174	0xeb	-21
175	0xf5	-11
176	0x16	22
177	0xb0	-80
178	0xbd	-67
179	0xff	-1
180	0x23	35
181	0xb0	-80
182	0x0b	11
183	0xe7	-25
184	0x14	20
185	0xf9	-7
186	0x00	0
187	0x40	64
188	0xe8	-24
189	0xb8	-72
190	0x4c	76
191	0x01	1
192	0xc5	-59
193	0x35	53
194	0xff	-1
195	0x81	-127
196	0xc1	-63
197	0x7f	127
198	0xe1	-31
199	0xe0	-32
200	0x81	-127
201	0x45	69
202	0x15	21
203	0x81	-127
204	0x7f	127
205	0x0d	13
206	0x81	-127
207	0x7f	127
208	0x7f	127
209	0x97	-105
210	0x2c	44
211	0x87	-121
212	0x91	-111
213	0xef	-17
214	0xee	-18
215	0xb8	-72
216	0x92	-110
217	0x7f	127
218	0x7f	127
219	0x22	34
220	0xdc	-36
221	0xd9	-39
222	0xba	-70
223	0x7f	127
224	0x7f	127
225	0x7f	127
226	0x5e	94
227	0x22	34
228	0xc9	-55
229	0x36	54
230	0x30	48
231	0xda	-38
232	0x84	-124
233	0x81	-127
234	0x04	4
235	0x7f	127
236	0xf1	-15
237	0xb7	-73
238	0xf0	-16
239	0xc2	-62
240	0x7f	127
241	0xd6	-42
242	0xc6	-58
243	0x7f	127
244	0xf3	-13
245	0x1b	27
246	0x43	67
247	0x0a	10
248	0x3f	63
249	0x86	-122
250	0x7f	127
251	0x66	102
252	0x7f	127
253	0xa5	-91
254	0x7f	127
255	0xd7	-41

block_11_expand/kernel i1 [192, 1, 1, 32]
0	0x2e	46
1	0x1e	30
2	0x54	84
3	0xf2	-14
4	0x2a	42
5	0xf3	-13
6	0xc1	-63
7	0xbb	-69
8	0xaa	-86
9	0xa4	-92
10	0x41	65
11	0xf5	-11
12	0x10	16
13	0xe4	-28
14	0xff	-1
15	0xdc	-36
16	0x7f	127
17	0xb2	-78
18	0x90	-112
19	0x11	17
20	0xe5	-27
21	0x28	40
22	0xd4	-44
23	0xfa	-6
24	0x5b	91
25	0xc8	-56
26	0xb2	-78
27	0x3b	59
28	0x4e	78
29	0xeb	-21
30	0x44	68
31	0x47	71
32	0xf1	-15
33	0xfd	-3
34	0xe4	-28
35	0x20	32
36	0xfa	-6
37	0xf2	-14
38	0x24	36
39	0x24	36
40	0x29	41
41	0x27	39
42	0xcd	-51
43	0xd9	-39
44	0x09	9
45	0x15	21
46	0x2e	46
47	0x20	32
48	0xac	-84
49	0x7f	127
50	0x36	54
51	0xe1	-31
52	0x26	38
53	0xe2	-30
54	0x05	5
55	0xea	-22
56	0x9b	-101
57	0x0f	15
58	0x5a	90
59	0xe0	-32
60	0xd0	-48
61	0xf9	-7
62	0xdf	-33
63	0xcb	-53
64	0xeb	-21
65	0x19	25
66	0x2b	43
67	0xd0	-48
68	0x0a	10
69	0xcf	-49
70	0x19	25
71	0x7f	127
72	0x51	81
73	0xca	-54
74	0x6c	108
75	0xea	-22
76	0xb5	-75
77	0x54	84
78	0x14	20
79	0x09	9
80	0x29	41
81	0x47	71
82	0x22	34
83	0xab	-85
84	0xfa	-6
85	0xb8	-72
86	0x04	4
87	0x62	98
88	0x3e	62
89	0x8f	-113
90	0xe7	-25
91	0x10	16
92	0x1c	28
93	0xf3	-13
94	0x5b	91
95	0x9f	-97
96	0xbb	-69
97	0x20	32
98	0xfc	-4
99	0xd1	-47
100	0xde	-34
101	0xf7	-9
102	0x10	16
103	0x23	35
104	0x55	85
105	0xb7	-73
106	0xe8	-24
107	0x7f	127
108	0xa4	-92
109	0xc4	-60
110	0xe1	-31
111	0xd8	-40
112	0x73	115
113	0xfe	-2
114	0x79	121
115	0x03	3
116	0x02	2
117	0xc7	-57
118	0x07	7
119	0x29	41
120	0xeb	-21
121	0x4c	76
122	0xe1	-31
123	0xc7	-57
124	0xdd	-35
125	0xc6	-58
126	0xfe	-2
127	0xcd	-51
128	0xe9	-23
129	0xb1	-79
130	0xbf	-65
131	0x18	24
132	0xfa	-6
133	0x33	51
134	0xe2	-30
135	0x4d	77
136	0x01	1
137	0x36	54
138	0x03	3
139	0xdd	-35
140	0xab	-85
141	0xdd	-35
142	0xdd	-35
143	0x2d	45
144	0x32	50
145	0xe0	-32
146	0xfa	-6
147	0x7f	127
148	0x07	7
149	0xb2	-78
150	0x03	3
151	0xe2	-30
152	0x0b	11
153	0x0c	12
154	0x20	32
155	0x2e	46
156	0xff	-1
157	0xbf	-65
158	0x19	25
159	0x13	19
160	0xb8	-72
161	0x03	3
162	0x4d	77
163	0x3d	61
164	0x3f	63
165	0x0a	10
166	0xe6	-26
167	0x22	34
168	0x08	8
169	0x03	3
170	0x06	6
171	0xab	-85
172	0xdc	-36
173	0x9f	-97
174	0x7f	127
175	0x08	8
176	0xc1	-63
177	0xe7	-25
178	0xdb	-37
179	0xf7	-9
180	0xf4	-12
181	0xd3	-45
182	0x2f	47
183	0x63	99
184	0xfc	-4
185	0xf7	-9
186	0x0d	13
187	0x1b	27
188	0x3e	62
189	0xf6	-10
190	0xd5	-43
191	0xda	-38
192	0x46	70
193	0xe9	-23
194	0xd5	-43
195	0xfb	-5
196	0xf7	-9
197	0xe9	-23
198	0xe4	-28
199	0xc3	-61
200	0xc7	-57
201	0xef	-17
202	0x0b	11
203	0xea	-22
204	0xf3	-13
205	0x12	18
206	0xd6	-42
207	0x72	114
208	0xc3	-61
209	0x36	54
210	0xd8	-40
211	0x04	4
212	0xe7	-25
213	0xdd	-35
214	0xd4	-44
215	0x58	88
216	0x2b	43
217	0x7f	127
218	0xe3	-29
219	0x09	9
220	0xf4	-12
221	0xf0	-16
222	0xa0	-96
223	0x27	39
224	0x03	3
225	0x01	1
226	0xe5	-27
227	0x1f	31
228	0xfc	-4
229	0xf9	-7
230	0xcf	-49
231	0x7f	127
232	0x33	51
233	0x0a	10
234	0x09	9
235	0xf3	-13
236	0x07	7
237	0xef	-17
238	0x0e	14
239	0xe1	-31
240	0x1d	29
241	0xeb	-21
242	0xeb	-21
243	0xe6	-26
244	0xda	-38
245	0xfa	-6
246	0xed	-19
247	0xd8	-40
248	0x53	83
249	0x97	-105
250	0xf2	-14
251	0x02	2
252	0x0d	13
253	0x29	41
254	0x56	86
255	0xf0	-16

block_11_project/kernel i1 [32, 1, 1, 192]
0	0x16	22
1	0x20	32
2	0xdd	-35
3	0x0e	14
4	0xff	-1
5	0x25	37
6	0xd5	-43
7	0x12	18
8	0xf3	-13
9	0x15	21
10	0x09	9
11	0x10	16
12	0xf1	-15
13	0x19	25
14	0x28	40
15	0x3c	60
16	0x34	52
17	0x2c	44
18	0x19	25
19	0xc8	-56
20	0x20	32
21	0xec	-20
22	0x2c	44
23	0xde	-34
24	0xe6	-26
25	0xb5	-75
26	0xdb	-37
27	0x44	68
28	0x04	4
29	0xd5	-43
30	0x02	2
31	0xd2	-46
32	0x02	2
33	0xeb	-21
34	0x14	20
35	0xf3	-13
36	0x09	9
37	0xfa	-6
38	0x0c	12
39	0x4e	78
40	0x2c	44
41	0xf4	-12
42	0xdd	-35
43	0xf3	-13
44	0x15	21
45	0xf6	-10
46	0x07	7
47	0x24	36
48	0xd7	-41
49	0xe0	-32
50	0xd0	-48
51	0x1b	27
52	0xec	-20
53	0x36	54
54	0xe4	-28
55	0x26	38
56	0x2a	42
57	0xd0	-48
58	0xfa	-6
59	0xad	-83
60	0xcf	-49
61	0xdb	-37
62	0xee	-18
63	0x1a	26
64	0xcc	-52
65	0x22	34
66	0xf5	-11
67	0xd4	-44
68	0xb1	-79
69	0x49	73
70	0xda	-38
71	0x4d	77
72	0xf2	-14
73	0xe1	-31
74	0xf6	-10
75	0xf0	-16
76	0x04	4
77	0x29	41
78	0x37	55
79	0x14	20
80	0x20	32
81	0x7f	127
82	0x2a	42
83	0x44	68
84	0xfe	-2
85	0xbb	-69
86	0x49	73
87	0x09	9
88	0x0c	12
89	0xce	-50
90	0x2c	44
91	0xb5	-75
92	0x06	6
93	0x0e	14
94	0x39	57
95	0x0f	15
96	0xf6	-10
97	0xe0	-32
98	0x20	32
99	0x0a	10
100	0xf6	-10
101	0xf8	-8
102	0xf6	-10
103	0xf5	-11
104	0xe4	-28
105	0x46	70
106	0x0b	11
107	0x07	7
108	0x15	21
109	0x1d	29
110	0xe3	-29
111	0x14	20
112	0x23	35
113	0xe3	-29
114	0x14	20
115	0x06	6
116	0xb2	-78
117	0x23	35
118	0xe8	-24
119	0x3f	63
120	0xa6	-90
121	0x14	20
122	0xfd	-3
123	0x49	73
124	0xc5	-59
125	0xe0	-32
126	0xea	-22
127	0xea	-22
128	0xf0	-16
129	0xcf	-49
130	0x20	32
131	0x0a	10
132	0xc8	-56
133	0xf8	-8
134	0xe0	-32
135	0x2a	42
136	0x04	4
137	0x35	53
138	0xf4	-12
139	0x1f	31
140	0x1d	29
141	0x4e	78
142	0xf6	-10
143	0xe1	-31
144	0xb6	-74
145	0xf1	-15
146	0x07	7
147	0x60	96
148	0xd8	-40
149	0xb4	-76
150	0xf4	-12
151	0x02	2
152	0x01	1
153	0xc2	-62
154	0xe8	-24
155	0x3e	62
156	0x0e	14
157	0x4c	76
158	0x2e	46
159	0x08	8
160	0x1e	30
161	0xf3	-13
162	0x1b	27
163	0x03	3
164	0xd7	-41
165	0x1f	31
166	0x29	41
167	0x2e	46
168	0xf8	-8
169	0xe8	-24
170	0x0d	13
171	0xfc	-4
172	0x05	5
173	0xfc	-4
174	0x4c	76
175	0x01	1
176	0x3d	61
177	0xef	-17
178	0xcf	-49
179	0x2c	44
180	0xf1	-15
181	0xed	-19
182	0x6d	109
183	0x0f	15
184	0xc5	-59
185	0xf4	-12
186	0x1f	31
187	0x49	73
188	0x0a	10
189	0x22	34
190	0x1e	30
191	0x0e	14
192	0xec	-20
193	0xfe	-2
194	0xe6	-26
195	0x28	40
196	0x1c	28
197	0x09	9
198	0xeb	-21
199	0xfa	-6
200	0x16	22
201	0xbe	-66
202	0x19	25
203	0x04	4
204	0x31	49
205	0x03	3
206	0x16	22
207	0xb3	-77
208	0xc1	-63
209	0x09	9
210	0x1b	27
211	0x96	-106
212	0x0b	11
213	0xfe	-2
214	0xfc	-4
215	0x20	32
216	0xcd	-51
217	0xcd	-51
218	0xd8	-40
219	0xf8	-8
220	0xd4	-44
221	0x79	121
222	0xd8	-40
223	0x35	53
224	0x1d	29
225	0xfb	-5
226	0x18	24
227	0xeb	-21
228	0x08	8
229	0x37	55
230	0xfb	-5
231	0xff	-1
232	0xf3	-13
233	0x1e	30
234	0xe9	-23
235	0x0b	11
236	0xca	-54
237	0xea	-22
238	0xeb	-21
239	0xf2	-14
240	0x21	33
241	0xea	-22
242	0x0b	11
243	0xd2	-46
244	0x29	41
245	0x17	23
246	0xfd	-3
247	0x9d	-99
248	0x2a	42
249	0xf6	-10
250	0x0d	13
251	0x2f	47
252	0x04	4
253	0x02	2
254	0xf0	-16
255	0x0d	13

block_12_depthwise/depthwise_kernel i1 [1, 3, 3, 192]
0	0x05	5
1	0xf0	-16
2	0x00	0
3	0x99	-103
4	0x30	48
5	0x17	23
6	0x02	2
7	0x24	36
8	0x69	105
9	0x0b	11
10	0x04	4
11	0x15	21
12	0x2c	44
13	0x47	71
14	0xfe	-2
15	0xe6	-26
16	0x33	51
17	0xef	-17
18	0x2c	44
19	0xff	-1
20	0x36	54
21	0x82	-126
22	0x17	23
23	0x06	6
24	0xe0	-32
25	0xf3	-13
26	0x29	41
27	0xf0	-16
28	0x2e	46
29	0xee	-18
30	0x42	66
31	0x16	22
32	0x00	0
33	0xe9	-23
34	0xfe	-2
35	0x09	9
36	0x14	20
37	0x98	-104
38	0xd8	-40
39	0x31	49
40	0x14	20
41	0x07	7
42	0x05	5
43	0x69	105
44	0xd8	-40
45	0xec	-20
46	0xe0	-32
47	0xf7	-9
48	0x58	88
49	0x03	3
50	0x0e	14
51	0xb2	-78
52	0xbd	-67
53	0x0f	15
54	0x13	19
55	0x82	-126
56	0x17	23
57	0x12	18
58	0x1a	26
59	0x11	17
60	0x40	64
61	0xf4	-12
62	0xea	-22
63	0x1a	26
64	0xf0	-16
65	0x54	84
66	0x02	2
67	0xf1	-15
68	0x1f	31
69	0xa1	-95
70	0x59	89
71	0xee	-18
72	0x7f	127
73	0x09	9
74	0x38	56
75	0x30	48
76	0x14	20
77	0x1d	29
78	0x0d	13
79	0xcd	-51
80	0xea	-22
81	0x19	25
82	0xe7	-25
83	0x68	104
84	0xff	-1
85	0xca	-54
86	0xe4	-28
87	0xf3	-13
88	0x31	49
89	0x81	-127
90	0x1b	27
91	0x16	22
92	0xde	-34
93	0xf6	-10
94	0xda	-38
95	0x32	50
96	0x16	22
97	0x20	32
98	0x33	51
99	0xe8	-24
100	0xed	-19
101	0x51	81
102	0x21	33
103	0xbc	-68
104	0xf9	-7
105	0x49	73
106	0x0b	11
107	0xfb	-5
108	0x11	17
109	0xc6	-58
110	0x08	8
111	0x6b	107
112	0x8d	-115
113	0xb1	-79
114	0x29	41
115	0xd3	-45
116	0x0e	14
117	0x11	17
118	0x81	-127
119	0xd3	-45
120	0xfd	-3
121	0x19	25
122	0xdd	-35
123	0x15	21
124	0x18	24
125	0xee	-18
126	0xfd	-3
127	0x20	32
128	0x3a	58
129	0x84	-124
130	0x32	50
131	0x0b	11
132	0x60	96
133	0x18	24
134	0x33	51
135	0x36	54
136	0xc1	-63
137	0xcd	-51
138	0xad	-83
139	0xae	-82
140	0xf4	-12
141	0x17	23
142	0x23	35
143	0xc0	-64
144	0x03	3
145	0x1a	26
146	0xf7	-9
147	0x49	73
148	0xed	-19
149	0xf1	-15
150	0x5b	91
151	0x0a	10
152	0x81	-127
153	0x3f	63
154	0x9e	-98
155	0x35	53
156	0xfb	-5
157	0x17	23
158	0xc3	-61
159	0x1c	28
160	0xd0	-48
161	0x30	48
162	0xe8	-24
163	0xd2	-46
164	0x04	4
165	0xb0	-80
166	0x17	23
167	0x25	37
168	0x3a	58
169	0x3d	61
170	0xdb	-37
171	0xe5	-27
172	0xd3	-45
173	0xe2	-30
174	0x10	16
175	0xe6	-26
176	0xe0	-32
177	0xd3	-45
178	0x0b	11
179	0xff	-1
180	0x05	5
181	0x16	22
182	0x3c	60
183	0x90	-112
184	0x0d	13
185	0xb3	-77
186	0x1a	26
187	0x27	39
188	0x03	3
189	0xec	-20
190	0xec	-20
191	0xc0	-64
192	0xda	-38
193	0x7f	127
194	0x67	103
195	0x81	-127
196	0xe5	-27
197	0x03	3
198	0xd3	-45
199	0x30	48
200	0x35	53
201	0x7f	127
202	0xfd	-3
203	0x2a	42
204	0x7f	127
205	0x7f	127
206	0x81	-127
207	0xb2	-78
208	0x71	113
209	0xee	-18
210	0x73	115
211	0x7f	127
212	0x33	51
213	0xe4	-28
214	0x27	39
215	0x1c	28
216	0x27	39
217	0xb9	-71
218	0x7f	127
219	0x7f	127
220	0x28	40
221	0x48	72
222	0xe4	-28
223	0x7f	127
224	0xec	-20
225	0x38	56
226	0xe9	-23
227	0x24	36
228	0xfe	-2
229	0x93	-109
230	0xb2	-78
231	0x52	82
232	0x23	35
233	0xee	-18
234	0x02	2
235	0xfe	-2
236	0xc6	-58
237	0x7f	127
238	0xd6	-42
239	0x0d	13
240	0xe9	-23
241	0xe6	-26
242	0x7f	127
243	0xc3	-61
244	0x81	-127
245	0x4c	76
246	0x37	55
247	0x4d	77
248	0x30	48
249	0x75	117
250	0xa9	-87
251	0x00	0
252	0x5f	95
253	0xca	-54
254	0xe5	-27
255	0x53	83

block_12_expand/kernel i1 [192, 1, 1, 32]
0	0x09	9
1	0x04	4
2	0x6d	109
3	0x02	2
4	0xb7	-73
5	0xe5	-27
6	0x00	0
7	0x2a	42
8	0x49	73
9	0x22	34
10	0xef	-17
11	0xe4	-28
12	0x03	3
13	0xff	-1
14	0x1e	30
15	0xeb	-21
16	0x50	80
17	0xe7	-25
18	0x29	41
19	0x16	22
20	0x69	105
21	0x2b	43
22	0xfa	-6
23	0xeb	-21
24	0xed	-19
25	0x14	20
26	0x20	32
27	0x81	-127
28	0xe8	-24
29	0x16	22
30	0xff	-1
31	0xd6	-42
32	0x33	51
33	0x08	8
34	0x2e	46
35	0xa9	-87
36	0xb3	-77
37	0xc5	-59
38	0x49	73
39	0x08	8
40	0x58	88
41	0x00	0
42	0x27	39
43	0xa8	-88
44	0x68	104
45	0x42	66
46	0x2a	42
47	0xb7	-73
48	0x0e	14
49	0xec	-20
50	0x05	5
51	0x06	6
52	0x48	72
53	0x7f	127
54	0x23	35
55	0xef	-17
56	0xe1	-31
57	0xe6	-26
58	0xef	-17
59	0x9f	-97
60	0xe1	-31
61	0x0a	10
62	0x23	35
63	0xf0	-16
64	0x53	83
65	0x31	49
66	0x16	22
67	0xb4	-76
68	0x78	120
69	0x43	67
70	0xd7	-41
71	0x47	71
72	0x81	-127
73	0x24	36
74	0x40	64
75	0x3a	58
76	0x0e	14
77	0x00	0
78	0x32	50
79	0xf1	-15
80	0x57	87
81	0x41	65
82	0x2c	44
83	0xf7	-9
84	0x53	83
85	0x6e	110
86	0x09	9
87	0xb7	-73
88	0xb0	-80
89	0xf6	-10
90	0x2f	47
91	0xa2	-94
92	0xab	-85
93	0xf5	-11
94	0xff	-1
95	0xf3	-13
96	0x19	25
97	0xee	-18
98	0x29	41
99	0xe1	-31
100	0x2b	43
101	0xe6	-26
102	0xef	-17
103	0x4d	77
104	0x48	72
105	0x84	-124
106	0x0a	10
107	0x58	88
108	0xb9	-71
109	0xff	-1
110	0xbf	-65
111	0x0e	14
112	0xc4	-60
113	0x2f	47
114	0x47	71
115	0x81	-127
116	0xca	-54
117	0x4e	78
118	0xe7	-25
119	0xe0	-32
120	0xee	-18
121	0x3c	60
122	0xa6	-90
123	0xaa	-86
124	0x09	9
125	0x01	1
126	0xf3	-13
127	0xc3	-61
128	0x0a	10
129	0x0d	13
130	0xf4	-12
131	0x0d	13
132	0x26	38
133	0x0a	10
134	0xf9	-7
135	0xca	-54
136	0xcd	-51
137	0x10	16
138	0xfd	-3
139	0xef	-17
140	0x27	39
141	0x14	20
142	0x0b	11
143	0x13	19
144	0x03	3
145	0xfc	-4
146	0xed	-19
147	0xf5	-11
148	0x7f	127
149	0xef	-17
150	0xe9	-23
151	0x02	2
152	0x0e	14
153	0x0a	10
154	0x3f	63
155	0x5a	90
156	0x03	3
157	0xf1	-15
158	0xd9	-39
159	0x26	38
160	0xf3	-13
161	0xbc	-68
162	0x0e	14
163	0x06	6
164	0x20	32
165	0x0b	11
166	0x55	85
167	0xfa	-6
168	0x1e	30
169	0xc4	-60
170	0xde	-34
171	0xd5	-43
172	0x41	65
173	0x42	66
174	0xe9	-23
175	0x71	113
176	0xd8	-40
177	0x5b	91
178	0x49	73
179	0x21	33
180	0x18	24
181	0xe6	-26
182	0x0a	10
183	0x20	32
184	0x06	6
185	0x79	121
186	0x3a	58
187	0xe6	-26
188	0xc9	-55
189	0xe2	-30
190	0x81	-127
191	0x02	2
192	0xf3	-13
193	0xbf	-65
194	0xa0	-96
195	0x11	17
196	0x81	-127
197	0xe8	-24
198	0x15	21
199	0x09	9
200	0xf2	-14
201	0x39	57
202	0xe9	-23
203	0xcf	-49
204	0x4e	78
205	0x40	64
206	0x3e	62
207	0xff	-1
208	0x88	-120
209	0x4c	76
210	0x12	18
211	0x38	56
212	0x26	38
213	0xc3	-61
214	0x27	39
215	0xeb	-21
216	0x8c	-116
217	0x7e	126
218	0xc8	-56
219	0xbd	-67
220	0x05	5
221	0x2b	43
222	0xf9	-7
223	0x29	41
224	0xc8	-56
225	0x18	24
226	0x11	17
227	0x29	41
228	0x7f	127
229	0xe2	-30
230	0xf3	-13
231	0xf7	-9
232	0x31	49
233	0x16	22
234	0xe8	-24
235	0x1b	27
236	0xee	-18
237	0xfa	-6
238	0xd4	-44
239	0x10	16
240	0xb1	-79
241	0x17	23
242	0x12	18
243	0xf1	-15
244	0x10	16
245	0x19	25
246	0xd5	-43
247	0xe8	-24
248	0x66	102
249	0x14	20
250	0xf3	-13
251	0xd8	-40
252	0xf2	-14
253	0x04	4
254	0x0c	12
255	0xea	-22

block_12_project/kernel i1 [32, 1, 1, 192]
0	0x23	35
1	0xb4	-76
2	0xca	-54
3	0x02	2
4	0xed	-19
5	0x06	6
6	0xe5	-27
7	0xd2	-46
8	0x00	0
9	0xeb	-21
10	0xf3	-13
11	0xe5	-27
12	0xd9	-39
13	0x21	33
14	0xdb	-37
15	0xf4	-12
16	0xe7	-25
17	0x04	4
18	0xf7	-9
19	0x1d	29
20	0xfc	-4
21	0xfd	-3
22	0xcf	-49
23	0x03	3
24	0xd4	-44
25	0x08	8
26	0x89	-119
27	0xdc	-36
28	0xb9	-71
29	0xa3	-93
30	0x09	9
31	0x43	67
32	0xc7	-57
33	0xea	-22
34	0x04	4
35	0x11	17
36	0x3b	59
37	0x0d	13
38	0x8d	-115
39	0xdf	-33
40	0x0f	15
41	0x36	54
42	0xe1	-31
43	0x34	52
44	0xf3	-13
45	0x19	25
46	0x55	85
47	0x9d	-99
48	0x17	23
49	0xb7	-73
50	0xfa	-6
51	0xe9	-23
52	0x2c	44
53	0xf8	-8
54	0xe2	-30
55	0xec	-20
56	0xca	-54
57	0x08	8
58	0xf4	-12
59	0xcc	-52
60	0xe1	-31
61	0x26	38
62	0xf6	-10
63	0x04	4
64	0xcf	-49
65	0x02	2
66	0xce	-50
67	0x04	4
68	0x0c	12
69	0xf5	-11
70	0xdf	-33
71	0xee	-18
72	0x0e	14
73	0x01	1
74	0x07	7
75	0x2a	42
76	0x42	66
77	0xca	-54
78	0xe6	-26
79	0x0c	12
80	0xf0	-16
81	0xff	-1
82	0xf5	-11
83	0x0a	10
84	0x25	37
85	0xca	-54
86	0x03	3
87	0xfb	-5
88	0xf1	-15
89	0xe6	-26
90	0xfb	-5
91	0xdc	-36
92	0x0f	15
93	0xce	-50
94	0x1c	28
95	0xc6	-58
96	0x48	72
97	0x20	32
98	0x48	72
99	0xeb	-21
100	0xd7	-41
101	0x2d	45
102	0xb1	-79
103	0x32	50
104	0x0d	13
105	0xc9	-55
106	0xd8	-40
107	0xf8	-8
108	0xee	-18
109	0x2a	42
110	0x00	0
111	0xe8	-24
112	0xea	-22
113	0xa3	-93
114	0x3c	60
115	0xf8	-8
116	0x27	39
117	0x1d	29
118	0xe3	-29
119	0xe6	-26
120	0xff	-1
121	0x2f	47
122	0xc2	-62
123	0x81	-127
124	0xe6	-26
125	0xb2	-78
126	0xca	-54
127	0x0a	10
128	0x9b	-101
129	0xe4	-28
130	0x05	5
131	0xfc	-4
132	0xe7	-25
133	0x1c	28
134	0xe5	-27
135	0xde	-34
136	0xe4	-28
137	0x1e	30
138	0xf0	-16
139	0xff	-1
140	0x6d	109
141	0x56	86
142	0xc6	-58
143	0x4b	75
144	0xed	-19
145	0x30	48
146	0x17	23
147	0xcc	-52
148	0xd1	-47
149	0x10	16
150	0xd7	-41
151	0x14	20
152	0x25	37
153	0x15	21
154	0x0d	13
155	0x0d	13
156	0xfb	-5
157	0x2d	45
158	0x06	6
159	0x27	39
160	0xd1	-47
161	0xf5	-11
162	0xf0	-16
163	0x0a	10
164	0xf5	-11
165	0xfa	-6
166	0xff	-1
167	0x35	53
168	0x08	8
169	0xfb	-5
170	0xf0	-16
171	0xe1	-31
172	0xf1	-15
173	0xfa	-6
174	0x21	33
175	0x00	0
176	0xf1	-15
177	0x04	4
178	0x00	0
179	0xea	-22
180	0x34	52
181	0x1f	31
182	0x3c	60
183	0x22	34
184	0x32	50
185	0x2e	46
186	0x18	24
187	0xff	-1
188	0xf3	-13
189	0x12	18
190	0xb2	-78
191	0x19	25
192	0xf9	-7
193	0x01	1
194	0xf1	-15
195	0x11	17
196	0x0c	12
197	0xf0	-16
198	0x00	0
199	0x07	7
200	0xf3	-13
201	0xd9	-39
202	0x1a	26
203	0xb5	-75
204	0xf2	-14
205	0x03	3
206	0xfb	-5
207	0x03	3
208	0xc9	-55
209	0xf2	-14
210	0xf1	-15
211	0x13	19
212	0xf9	-7
213	0xe3	-29
214	0x64	100
215	0xe0	-32
216	0x20	32
217	0x0c	12
218	0xeb	-21
219	0x39	57
220	0x02	2
221	0xfb	-5
222	0x1c	28
223	0x10	16
224	0xdc	-36
225	0x1e	30
226	0x12	18
227	0x0e	14
228	0xf3	-13
229	0x0b	11
230	0xe6	-26
231	0xda	-38
232	0x09	9
233	0x00	0
234	0x15	21
235	0xf0	-16
236	0x2d	45
237	0xec	-20
238	0x1c	28
239	0xf5	-11
240	0xfc	-4
241	0x06	6
242	0xfe	-2
243	0x47	71
244	0xcd	-51
245	0xf4	-12
246	0xc8	-56
247	0x1a	26
248	0x09	9
249	0x2a	42
250	0xfc	-4
251	0x09	9
252	0xf1	-15
253	0xea	-22
254	0xc0	-64
255	0x18	24

block_13_depthwise/depthwise_kernel i1 [1, 3, 3, 192]
0	0x56	86
1	0x34	52
2	0x3b	59
3	0x81	-127
4	0x46	70
5	0x41	65
6	0xc3	-61
7	0x59	89
8	0x51	81
9	0x47	71
10	0x4c	76
11	0x43	67
12	0xa3	-93
13	0x3f	63
14	0x46	70
15	0xc1	-63
16	0xbf	-65
17	0x13	19
18	0x42	66
19	0x43	67
20	0xbc	-68
21	0xb5	-75
22	0x44	68
23	0x43	67
24	0xbe	-66
25	0x35	53
26	0x3a	58
27	0xb3	-77
28	0x6e	110
29	0xae	-82
30	0xc2	-62
31	0xac	-84
32	0x96	-106
33	0xd1	-47
34	0x40	64
35	0x4d	77
36	0xa1	-95
37	0xbb	-69
38	0x40	64
39	0xce	-50
40	0x3f	63
41	0xbf	-65
42	0x4a	74
43	0xa2	-94
44	0x48	72
45	0xc2	-62
46	0x37	55
47	0x46	70
48	0x44	68
49	0x3b	59
50	0xbc	-68
51	0xbd	-67
52	0x37	55
53	0xbf	-65
54	0x53	83
55	0xb7	-73
56	0x1a	26
57	0x4e	78
58	0x47	71
59	0xa1	-95
60	0xc3	-61
61	0xc3	-61
62	0x36	54
63	0x3b	59
64	0x43	67
65	0x31	49
66	0xc8	-56
67	0x42	66
68	0xbc	-68
69	0xbc	-68
70	0xcb	-53
71	0x46	70
72	0x57	87
73	0xa2	-94
74	0x4c	76
75	0x23	35
76	0x42	66
77	0xb1	-79
78	0xa6	-90
79	0xb4	-76
80	0x37	55
81	0x4a	74
82	0xc8	-56
83	0xa4	-92
84	0xac	-84
85	0xc1	-63
86	0x40	64
87	0xba	-70
88	0x37	55
89	0x46	70
90	0xc7	-57
91	0x44	68
92	0x43	67
93	0x3f	63
94	0xc9	-55
95	0x3c	60
96	0x94	-108
97	0x38	56
98	0x67	103
99	0x45	69
100	0x47	71
101	0x3f	63
102	0xca	-54
103	0xb6	-74
104	0x47	71
105	0xb9	-71
106	0xb2	-78
107	0xc5	-59
108	0x44	68
109	0x49	73
110	0x40	64
111	0xc6	-58
112	0x43	67
113	0xca	-54
114	0x37	55
115	0x3c	60
116	0xbf	-65
117	0x3a	58
118	0x22	34
119	0x35	53
120	0x44	68
121	0x9f	-97
122	0x4e	78
123	0x4e	78
124	0xc4	-60
125	0xa4	-92
126	0x53	83
127	0x86	-122
128	0xcb	-53
129	0x8b	-117
130	0xc6	-58
131	0x4b	75
132	0xbf	-65
133	0xcd	-51
134	0x53	83
135	0x43	67
136	0x34	52
137	0x39	57
138	0x31	49
139	0x3a	58
140	0x46	70
141	0x46	70
142	0x95	-107
143	0xb3	-77
144	0x4d	77
145	0xbf	-65
146	0x47	71
147	0x3f	63
148	0x35	53
149	0x45	69
150	0x46	70
151	0x58	88
152	0x44	68
153	0x93	-109
154	0x49	73
155	0xc8	-56
156	0x47	71
157	0x42	66
158	0xcf	-49
159	0x4f	79
160	0x30	48
161	0x6a	106
162	0x47	71
163	0x4b	75
164	0xa5	-91
165	0x3f	63
166	0xb8	-72
167	0x32	50
168	0x3d	61
169	0x38	56
170	0x4d	77
171	0xc4	-60
172	0x37	55
173	0xb1	-79
174	0x3f	63
175	0x3c	60
176	0x48	72
177	0x55	85
178	0x45	69
179	0x4f	79
180	0xb5	-75
181	0x3f	63
182	0x55	85
183	0xa8	-88
184	0xbb	-69
185	0x3d	61
186	0xc7	-57
187	0x3c	60
188	0x3f	63
189	0x40	64
190	0x49	73
191	0x27	39
192	0x6c	108
193	0x51	81
194	0x53	83
195	0x2c	44
196	0x56	86
197	0x5a	90
198	0xb9	-71
199	0x6a	106
200	0x5f	95
201	0x5d	93
202	0x63	99
203	0x59	89
204	0xa5	-91
205	0x56	86
206	0x5f	95
207	0xaa	-86
208	0xa6	-90
209	0x10	16
210	0x5c	92
211	0x5e	94
212	0xa4	-92
213	0xa5	-91
214	0x53	83
215	0x5d	93
216	0xa7	-89
217	0x49	73
218	0x55	85
219	0x8b	-117
220	0x74	116
221	0x91	-111
222	0xa4	-92
223	0x90	-112
224	0x81	-127
225	0xc0	-64
226	0x53	83
227	0x60	96
228	0x8c	-116
229	0x9f	-97
230	0x60	96
231	0xb3	-77
232	0x5a	90
233	0xa8	-88
234	0x5d	93
235	0x8c	-116
236	0x64	100
237	0xad	-83
238	0x51	81
239	0x5b	91
240	0x5d	93
241	0x53	83
242	0xa8	-88
243	0xa3	-93
244	0x46	70
245	0xa4	-92
246	0x68	104
247	0xa2	-94
248	0x28	40
249	0x60	96
250	0x63	99
251	0x16	22
252	0xad	-83
253	0xaf	-81
254	0x53	83
255	0x53	83

block_13_expand/kernel i1 [192, 1, 1, 32]
0	0xeb	-21
1	0xf9	-7
2	0x1b	27
3	0xf6	-10
4	0x8d	-115
5	0xfb	-5
6	0x0c	12
7	0xeb	-21
8	0xf4	-12
9	0x75	117
10	0xc8	-56
11	0x0f	15
12	0x7f	127
13	0x29	41
14	0x3b	59
15	0xba	-70
16	0x8e	-114
17	0x40	64
18	0x0f	15
19	0x02	2
20	0x0b	11
21	0xb8	-72
22	0x54	84
23	0xf9	-7
24	0xb8	-72
25	0xcb	-53
26	0x22	34
27	0x88	-120
28	0xfa	-6
29	0x39	57
30	0x08	8
31	0xfb	-5
32	0x48	72
33	0x1a	26
34	0x42	66
35	0x0c	12
36	0x29	41
37	0x2b	43
38	0x21	33
39	0x29	41
40	0xe4	-28
41	0x31	49
42	0x17	23
43	0x37	55
44	0x16	22
45	0x2d	45
46	0x19	25
47	0x25	37
48	0xec	-20
49	0xcb	-53
50	0xc7	-57
51	0x10	16
52	0x3f	63
53	0x5b	91
54	0xf9	-7
55	0x08	8
56	0xcc	-52
57	0x81	-127
58	0xfe	-2
59	0x50	80
60	0x1b	27
61	0x2e	46
62	0x09	9
63	0x2f	47
64	0x6b	107
65	0x5b	91
66	0x08	8
67	0x7f	127
68	0xdb	-37
69	0xc8	-56
70	0xf9	-7
71	0x31	49
72	0xbb	-69
73	0x25	37
74	0x2d	45
75	0x3c	60
76	0x33	51
77	0x0c	12
78	0xff	-1
79	0x28	40
80	0xe5	-27
81	0x94	-108
82	0xd7	-41
83	0x20	32
84	0x03	3
85	0x9d	-99
86	0x23	35
87	0xa8	-88
88	0x17	23
89	0x02	2
90	0xcf	-49
91	0x3d	61
92	0xf8	-8
93	0xfe	-2
94	0xa8	-88
95	0x8d	-115
96	0x0d	13
97	0xef	-17
98	0xf3	-13
99	0xd1	-47
100	0x0f	15
101	0xfc	-4
102	0xe5	-27
103	0xc8	-56
104	0x09	9
105	0xb1	-79
106	0x1c	28
107	0xb1	-79
108	0x7f	127
109	0x21	33
110	0x4e	78
111	0x47	71
112	0xe5	-27
113	0xf4	-12
114	0xc0	-64
115	0xf9	-7
116	0x34	52
117	0xe3	-29
118	0x43	67
119	0x0f	15
120	0xf6	-10
121	0xf8	-8
122	0x53	83
123	0x16	22
124	0xe1	-31
125	0xde	-34
126	0xcb	-53
127	0x31	49
128	0x7f	127
129	0xe2	-30
130	0x32	50
131	0xf0	-16
132	0xfc	-4
133	0xbe	-66
134	0x2d	45
135	0xc1	-63
136	0x04	4
137	0x22	34
138	0xe8	-24
139	0x2c	44
140	0x0a	10
141	0xc8	-56
142	0x1b	27
143	0xd8	-40
144	0xfb	-5
145	0xe3	-29
146	0x1f	31
147	0x23	35
148	0x16	22
149	0x17	23
150	0xbc	-68
151	0x28	40
152	0x14	20
153	0xb9	-71
154	0x24	36
155	0xf2	-14
156	0x30	48
157	0xf6	-10
158	0xe3	-29
159	0x4c	76
160	0xec	-20
161	0x20	32
162	0x06	6
163	0xe7	-25
164	0x1c	28
165	0x7f	127
166	0xc3	-61
167	0x28	40
168	0x29	41
169	0xff	-1
170	0x0d	13
171	0xd6	-42
172	0x0a	10
173	0x32	50
174	0x21	33
175	0xef	-17
176	0xfb	-5
177	0xd4	-44
178	0xe0	-32
179	0x23	35
180	0xf1	-15
181	0xf3	-13
182	0xfd	-3
183	0x14	20
184	0xe3	-29
185	0x21	33
186	0xee	-18
187	0xf8	-8
188	0x39	57
189	0x37	55
190	0xd1	-47
191	0xd2	-46
192	0xef	-17
193	0xe2	-30
194	0x3d	61
195	0x02	2
196	0xb9	-71
197	0x08	8
198	0xf8	-8
199	0x03	3
200	0xed	-19
201	0xec	-20
202	0x11	17
203	0x1b	27
204	0xf7	-9
205	0x1b	27
206	0xc7	-57
207	0x03	3
208	0xc3	-61
209	0x26	38
210	0xec	-20
211	0x2b	43
212	0x03	3
213	0x25	37
214	0xb8	-72
215	0x32	50
216	0x0c	12
217	0x4e	78
218	0x81	-127
219	0xd2	-46
220	0xeb	-21
221	0x23	35
222	0xcc	-52
223	0xde	-34
224	0xf6	-10
225	0xe5	-27
226	0x2d	45
227	0x7f	127
228	0x11	17
229	0x17	23
230	0xa1	-95
231	0xf3	-13
232	0xd2	-46
233	0xfa	-6
234	0xca	-54
235	0x12	18
236	0xf8	-8
237	0xfa	-6
238	0xd4	-44
239	0xe8	-24
240	0xf6	-10
241	0xfe	-2
242	0x0d	13
243	0x1b	27
244	0x07	7
245	0xf4	-12
246	0xe0	-32
247	0xa7	-89
248	0xe2	-30
249	0xfe	-2
250	0xf3	-13
251	0xe9	-23
252	0xd5	-43
253	0xff	-1
254	0xbc	-68
255	0xf3	-13

block_13_project/kernel i1 [56, 1, 1, 192]
0	0xe9	-23
1	0x40	64
2	0x0b	11
3	0xff	-1
4	0xdf	-33
5	0x14	20
6	0x01	1
7	0xf6	-10
8	0x14	20
9	0xf1	-15
10	0xfc	-4
11	0xf7	-9
12	0xd5	-43
13	0x10	16
14	0xbe	-66
15	0xa1	-95
16	0xb2	-78
17	0x02	2
18	0x2d	45
19	0x11	17
20	0x20	32
21	0xc1	-63
22	0xea	-22
23	0x31	49
24	0xfb	-5
25	0x0b	11
26	0xdd	-35
27	0x13	19
28	0x1e	30
29	0xc2	-62
30	0xe3	-29
31	0xe1	-31
32	0x16	22
33	0x21	33
34	0xbc	-68
35	0xc3	-61
36	0x18	24
37	0xf4	-12
38	0x0e	14
39	0x18	24
40	0x28	40
41	0xf4	-12
42	0x03	3
43	0x1d	29
44	0x35	53
45	0xb4	-76
46	0xfe	-2
47	0x1f	31
48	0xef	-17
49	0xfa	-6
50	0xdd	-35
51	0xeb	-21
52	0x20	32
53	0xd8	-40
54	0xdf	-33
55	0x33	51
56	0x07	7
57	0xec	-20
58	0xed	-19
59	0xf5	-11
60	0x3c	60
61	0x35	53
62	0x10	16
63	0x0c	12
64	0xf8	-8
65	0x1a	26
66	0xf3	-13
67	0xe9	-23
68	0xf0	-16
69	0xcf	-49
70	0x01	1
71	0x04	4
72	0xd0	-48
73	0xcc	-52
74	0xf2	-14
75	0x10	16
76	0xd6	-42
77	0x02	2
78	0x09	9
79	0xce	-50
80	0x20	32
81	0xc9	-55
82	0x0a	10
83	0x20	32
84	0x2c	44
85	0x01	1
86	0x00	0
87	0x18	24
88	0xea	-22
89	0x14	20
90	0x6d	109
91	0x04	4
92	0x3f	63
93	0xf5	-11
94	0x15	21
95	0xc5	-59
96	0x0b	11
97	0x35	53
98	0xc7	-57
99	0xe9	-23
100	0xfa	-6
101	0x10	16
102	0x14	20
103	0xf9	-7
104	0xff	-1
105	0x32	50
106	0xfb	-5
107	0x23	35
108	0xf9	-7
109	0x1f	31
110	0x02	2
111	0xd3	-45
112	0x25	37
113	0xf6	-10
114	0x17	23
115	0xed	-19
116	0xf2	-14
117	0xfa	-6
118	0xbe	-66
119	0xff	-1
120	0xea	-22
121	0xfb	-5
122	0x22	34
123	0x20	32
124	0x29	41
125	0x02	2
126	0xe6	-26
127	0x05	5
128	0xbc	-68
129	0x04	4
130	0x1b	27
131	0xff	-1
132	0x57	87
133	0x4f	79
134	0x37	55
135	0x02	2
136	0x1f	31
137	0xfa	-6
138	0x18	24
139	0x22	34
140	0x1d	29
141	0xf4	-12
142	0xf1	-15
143	0x5b	91
144	0xf9	-7
145	0xf4	-12
146	0x15	21
147	0x48	72
148	0xe5	-27
149	0xf5	-11
150	0x29	41
151	0xdf	-33
152	0xcb	-53
153	0x0d	13
154	0xcb	-53
155	0xf9	-7
156	0x22	34
157	0xf3	-13
158	0x00	0
159	0xeb	-21
160	0xc8	-56
161	0x0c	12
162	0x08	8
163	0xeb	-21
164	0xe5	-27
165	0xee	-18
166	0xe5	-27
167	0xdd	-35
168	0x05	5
169	0x1b	27
170	0x58	88
171	0x12	18
172	0xff	-1
173	0xb6	-74
174	0xd4	-44
175	0xdf	-33
176	0x32	50
177	0xfd	-3
178	0xbc	-68
179	0x1d	29
180	0x32	50
181	0xc8	-56
182	0x81	-127
183	0x12	18
184	0xcf	-49
185	0xe0	-32
186	0xab	-85
187	0xe6	-26
188	0xe0	-32
189	0x37	55
190	0xf3	-13
191	0xdd	-35
192	0x1b	27
193	0xea	-22
194	0xff	-1
195	0x0a	10
196	0xf4	-12
197	0xf1	-15
198	0x1d	29
199	0x13	19
200	0xff	-1
201	0x10	16
202	0x6e	110
203	0xd6	-42
204	0x07	7
205	0xd9	-39
206	0xa6	-90
207	0xed	-19
208	0x28	40
209	0xd8	-40
210	0x3a	58
211	0x0d	13
212	0x30	48
213	0x3f	63
214	0xf6	-10
215	0x2b	43
216	0xd7	-41
217	0x60	96
218	0x36	54
219	0x0e	14
220	0x0a	10
221	0x0e	14
222	0xcd	-51
223	0x08	8
224	0x20	32
225	0xd5	-43
226	0x18	24
227	0xc5	-59
228	0xf3	-13
229	0xda	-38
230	0x05	5
231	0xcd	-51
232	0x22	34
233	0x07	7
234	0xfa	-6
235	0xfb	-5
236	0xf8	-8
237	0x32	50
238	0xc9	-55
239	0xbe	-66
240	0x04	4
241	0xec	-20
242	0xf5	-11
243	0xe6	-26
244	0x00	0
245	0x81	-127
246	0xc6	-58
247	0x49	73
248	0xd7	-41
249	0xdd	-35
250	0xe9	-23
251	0xf0	-16
252	0x19	25
253	0xa3	-93
254	0x10	16
255	0x57	87

block_14_depthwise/depthwise_kernel i1 [1, 3, 3, 336]
0	0xeb	-21
1	0xf4	-12
2	0x3e	62
3	0xd1	-47
4	0x38	56
5	0x3f	63
6	0x30	48
7	0x08	8
8	0xa3	-93
9	0xe1	-31
10	0xe3	-29
11	0x2c	44
12	0xef	-17
13	0x02	2
14	0xf4	-12
15	0x32	50
16	0x94	-108
17	0xb1	-79
18	0xc5	-59
19	0x37	55
20	0xb0	-80
21	0x37	55
22	0xcb	-53
23	0xda	-38
24	0xeb	-21
25	0x09	9
26	0x3e	62
27	0x48	72
28	0xde	-34
29	0x88	-120
30	0x32	50
31	0x18	24
32	0xdf	-33
33	0xfb	-5
34	0x81	-127
35	0x1d	29
36	0x00	0
37	0x16	22
38	0xdb	-37
39	0x12	18
40	0xff	-1
41	0x4a	74
42	0x07	7
43	0xf9	-7
44	0x1c	28
45	0xd6	-42
46	0x0b	11
47	0x13	19
48	0x4d	77
49	0xe4	-28
50	0xa5	-91
51	0x2c	44
52	0xeb	-21
53	0xf5	-11
54	0x0d	13
55	0x7f	127
56	0xeb	-21
57	0x81	-127
58	0x08	8
59	0x17	23
60	0x30	48
61	0xe7	-25
62	0x8e	-114
63	0x24	36
64	0x1f	31
65	0x20	32
66	0xf2	-14
67	0x33	51
68	0x76	118
69	0xf7	-9
70	0x1e	30
71	0xaf	-81
72	0x2d	45
73	0x01	1
74	0x31	49
75	0xe2	-30
76	0x3e	62
77	0x0b	11
78	0xd5	-43
79	0xe9	-23
80	0x36	54
81	0x27	39
82	0x29	41
83	0x02	2
84	0xd3	-45
85	0xb5	-75
86	0xe0	-32
87	0xc5	-59
88	0x3f	63
89	0xbb	-69
90	0x32	50
91	0x04	4
92	0x27	39
93	0x39	57
94	0x47	71
95	0x27	39
96	0xe5	-27
97	0x6f	111
98	0xa7	-89
99	0xe3	-29
100	0xef	-17
101	0xe5	-27
102	0x10	16
103	0x2e	46
104	0x27	39
105	0x1c	28
106	0xed	-19
107	0xca	-54
108	0x45	69
109	0x1f	31
110	0x1e	30
111	0x34	52
112	0x2d	45
113	0xc7	-57
114	0xbf	-65
115	0x81	-127
116	0x21	33
117	0xe9	-23
118	0xba	-70
119	0x20	32
120	0xd4	-44
121	0x42	66
122	0xc1	-63
123	0x88	-120
124	0x2d	45
125	0xf9	-7
126	0xc0	-64
127	0x2d	45
128	0xf7	-9
129	0xb3	-77
130	0xf3	-13
131	0x01	1
132	0xd2	-46
133	0xdb	-37
134	0xe0	-32
135	0x91	-111
136	0x11	17
137	0xf0	-16
138	0xbd	-67
139	0x3e	62
140	0x11	17
141	0xff	-1
142	0x41	65
143	0xf7	-9
144	0x05	5
145	0x5d	93
146	0x7f	127
147	0xcd	-51
148	0x28	40
149	0x11	17
150	0xa2	-94
151	0xf1	-15
152	0x1d	29
153	0x6e	110
154	0xd3	-45
155	0x1b	27
156	0xfd	-3
157	0x2f	47
158	0xf2	-14
159	0x81	-127
160	0x3b	59
161	0xc8	-56
162	0xc3	-61
163	0x81	-127
164	0xff	-1
165	0x3e	62
166	0x2b	43
167	0x07	7
168	0x1d	29
169	0x1e	30
170	0xb7	-73
171	0x3b	59
172	0x0f	15
173	0x20	32
174	0x00	0
175	0x52	82
176	0xde	-34
177	0x20	32
178	0xf4	-12
179	0xb3	-77
180	0x58	88
181	0x20	32
182	0xe2	-30
183	0xe4	-28
184	0x2b	43
185	0xed	-19
186	0x29	41
187	0xdf	-33
188	0x31	49
189	0x37	55
190	0x92	-110
191	0xfe	-2
192	0x40	64
193	0x12	18
194	0x2d	45
195	0x88	-120
196	0x22	34
197	0x1f	31
198	0x41	65
199	0xd6	-42
200	0xde	-34
201	0x1a	26
202	0x40	64
203	0xd2	-46
204	0xf4	-12
205	0xd5	-43
206	0xf3	-13
207	0xf1	-15
208	0xeb	-21
209	0x04	4
210	0x81	-127
211	0xfe	-2
212	0x8d	-115
213	0xd7	-41
214	0x26	38
215	0xaf	-81
216	0xc7	-57
217	0xdb	-37
218	0x42	66
219	0x18	24
220	0xec	-20
221	0xfa	-6
222	0x2c	44
223	0xf6	-10
224	0x1e	30
225	0x25	37
226	0x7b	123
227	0x2c	44
228	0x8b	-117
229	0xfc	-4
230	0x0a	10
231	0x36	54
232	0xf4	-12
233	0x3f	63
234	0xbf	-65
235	0xfe	-2
236	0xde	-34
237	0x7f	127
238	0x2c	44
239	0x3b	59
240	0xe8	-24
241	0x4c	76
242	0xa0	-96
243	0xde	-34
244	0x4e	78
245	0x2e	46
246	0x11	17
247	0x28	40
248	0x1a	26
249	0xfd	-3
250	0x40	64
251	0x22	34
252	0xb6	-74
253	0xc5	-59
254	0x48	72
255	0x56	86

block_14_expand/kernel i1 [336, 1, 1, 56]
0	0x10	16
1	0x51	81
2	0xc3	-61
3	0x01	1
4	0x4a	74
5	0x19	25
6	0x36	54
7	0xa7	-89
8	0x0c	12
9	0x2a	42
10	0xd6	-42
11	0x5f	95
12	0x71	113
13	0x2a	42
14	0x8e	-114
15	0x9b	-101
16	0x1b	27
17	0x37	55
18	0x12	18
19	0x3a	58
20	0xcb	-53
21	0x41	65
22	0x10	16
23	0xb6	-74
24	0xab	-85
25	0x30	48
26	0x38	56
27	0xe9	-23
28	0x24	36
29	0x51	81
30	0x06	6
31	0x07	7
32	0xfe	-2
33	0x01	1
34	0xbd	-67
35	0xd0	-48
36	0x7d	125
37	0x47	71
38	0xdf	-33
39	0x5d	93
40	0x9c	-100
41	0xbe	-66
42	0x9a	-102
43	0x40	64
44	0xe2	-30
45	0x17	23
46	0x7f	127
47	0x0e	14
48	0x64	100
49	0xb0	-80
50	0x2b	43
51	0xb6	-74
52	0xa4	-92
53	0x9d	-99
54	0xbf	-65
55	0xfe	-2
56	0x1b	27
57	0x34	52
58	0xb8	-72
59	0xef	-17
60	0x0c	12
61	0x13	19
62	0x22	34
63	0xf2	-14
64	0x15	21
65	0x08	8
66	0x43	67
67	0x22	34
68	0x1a	26
69	0xea	-22
70	0x12	18
71	0xe0	-32
72	0x3a	58
73	0x1f	31
74	0xdd	-35
75	0x71	113
76	0xe0	-32
77	0xff	-1
78	0xbb	-69
79	0xf2	-14
80	0x0b	11
81	0xd4	-44
82	0x07	7
83	0x47	71
84	0xe3	-29
85	0x0c	12
86	0xac	-84
87	0x1d	29
88	0x04	4
89	0x29	41
90	0xfb	-5
91	0x1c	28
92	0xdd	-35
93	0x15	21
94	0x0e	14
95	0x81	-127
96	0x0e	14
97	0xb4	-76
98	0x0c	12
99	0xb7	-73
100	0x55	85
101	0x01	1
102	0xfa	-6
103	0x24	36
104	0x1a	26
105	0x48	72
106	0xf0	-16
107	0xeb	-21
108	0xd6	-42
109	0x27	39
110	0x26	38
111	0x14	20
112	0x01	1
113	0xfe	-2
114	0x1c	28
115	0xad	-83
116	0xcd	-51
117	0xbf	-65
118	0x1a	26
119	0xa5	-91
120	0x28	40
121	0x36	54
122	0x94	-108
123	0x38	56
124	0x11	17
125	0x08	8
126	0xfd	-3
127	0xd0	-48
128	0x11	17
129	0xfb	-5
130	0xd8	-40
131	0x13	19
132	0xf2	-14
133	0xd2	-46
134	0x03	3
135	0xb8	-72
136	0xa2	-94
137	0xb4	-76
138	0x26	38
139	0xbc	-68
140	0x3c	60
141	0x1b	27
142	0x2c	44
143	0x41	65
144	0xff	-1
145	0x0d	13
146	0xfe	-2
147	0x43	67
148	0x39	57
149	0x7b	123
150	0xfb	-5
151	0x3f	63
152	0xb1	-79
153	0x0a	10
154	0xf2	-14
155	0x10	16
156	0xe8	-24
157	0xa4	-92
158	0x20	32
159	0x21	33
160	0xc9	-55
161	0xff	-1
162	0xeb	-21
163	0xba	-70
164	0x81	-127
165	0x87	-121
166	0x15	21
167	0xe5	-27
168	0xda	-38
169	0xed	-19
170	0xf2	-14
171	0xd7	-41
172	0xc1	-63
173	0xb9	-71
174	0x30	48
175	0xee	-18
176	0x07	7
177	0x30	48
178	0x17	23
179	0xf0	-16
180	0x08	8
181	0x2a	42
182	0xf4	-12
183	0x01	1
184	0x09	9
185	0xe9	-23
186	0xfe	-2
187	0xf7	-9
188	0x19	25
189	0xfb	-5
190	0xda	-38
191	0xdc	-36
192	0x1c	28
193	0x0a	10
194	0x2b	43
195	0xfc	-4
196	0x30	48
197	0x38	56
198	0xcb	-53
199	0xe7	-25
200	0x20	32
201	0x4a	74
202	0xe8	-24
203	0x16	22
204	0xec	-20
205	0xa3	-93
206	0x06	6
207	0xd1	-47
208	0xee	-18
209	0x7f	127
210	0xf5	-11
211	0x52	82
212	0xca	-54
213	0x18	24
214	0x3e	62
215	0x05	5
216	0xf2	-14
217	0xf6	-10
218	0xfa	-6
219	0x09	9
220	0xea	-22
221	0xf9	-7
222	0x12	18
223	0x39	57
224	0xe7	-25
225	0xef	-17
226	0x3c	60
227	0x05	5
228	0xd9	-39
229	0x03	3
230	0x2e	46
231	0x25	37
232	0x2c	44
233	0x26	38
234	0x2d	45
235	0xae	-82
236	0x02	2
237	0xd1	-47
238	0x7f	127
239	0x1a	26
240	0x34	52
241	0x15	21
242	0x01	1
243	0x12	18
244	0xe9	-23
245	0xa2	-94
246	0xe2	-30
247	0x2f	47
248	0x2d	45
249	0x08	8
250	0x27	39
251	0x26	38
252	0xd5	-43
253	0x05	5
254	0x16	22
255	0xc2	-62
